…
Namespace(H=1080, O=False, W=1920, bound=2, cuda_device=0, cuda_ray=False, cuda_ray_density_time_slice_interval=1, downscale=2, dt_gamma=0.0078125, epoch=200, error_type='isg', eval_interval=100, ff=False, fovy=50, fp16=False, geo_feat_dim=128, gui=False, hidden_dim=256, max_ray_batch=4096, max_spp=64, mode='colmap', model='CombineDyNeRFNetwork', model_static=False, num_rays=4096, num_steps=512, out_video_idx=34, path='./data/coffee_martini/', preload=True, radius=5, rand_pose_interval=0, scale=0.1, seed=0, tcnn=False, test=True, upsample_steps=0, video_frame_num=150, video_frame_start=0, workspace='trial_dynerf_5s')
CombineDyNeRFNetwork(
  (static_model): StaticNerf(
    (encoder): FreqEncoder()
    (sigma_net): ModuleList(
      (0): Linear(in_features=75, out_features=256, bias=False)
      (1): Linear(in_features=256, out_features=256, bias=False)
      (2): Linear(in_features=256, out_features=256, bias=False)
      (3): Linear(in_features=331, out_features=256, bias=False)
      (4): Linear(in_features=256, out_features=256, bias=False)
      (5): Linear(in_features=256, out_features=257, bias=False)
    )
    (encoder_dir): FreqEncoder()
    (color_net): ModuleList(
      (0): Linear(in_features=307, out_features=256, bias=False)
      (1): Linear(in_features=256, out_features=256, bias=False)
      (2): Linear(in_features=256, out_features=3, bias=False)
    )
  )
  (dynamic_model): DynamicNerf(
    (encoder): FreqEncoder()
    (encoder_time): FreqEncoder()
    (sigma_net): ModuleList(
      (0): Linear(in_features=100, out_features=256, bias=False)
      (1): Linear(in_features=256, out_features=256, bias=False)
      (2): Linear(in_features=256, out_features=256, bias=False)
      (3): Linear(in_features=356, out_features=256, bias=False)
      (4): Linear(in_features=256, out_features=256, bias=False)
      (5): Linear(in_features=256, out_features=257, bias=False)
    )
    (encoder_dir): FreqEncoder()
    (color_net): ModuleList(
      (0): Linear(in_features=307, out_features=256, bias=False)
      (1): Linear(in_features=256, out_features=256, bias=False)
      (2): Linear(in_features=256, out_features=3, bias=False)
    )
  )
)
[INFO] Trainer: ngp | 2022-07-01_12-53-24 | cuda | fp32 | trial_dynerf_5s
[INFO] #parameters: 1035264
[INFO] Loading latest checkpoint ...
[INFO] Latest checkpoint is trial_dynerf_5s/checkpoints/ngp_ep0200.pth.tar
[INFO] loaded model.
[INFO] loaded optimizer.
[WARN] Failed to load scheduler, use default.
[INFO] loaded scaler.
==> Start Test, save results to trial_dynerf_5s/results
…
